Opening mnist dataset ...
Preprocessing mnist dataset ...
Building the two layer model ...
Model: "sequential_1"
_________________________________________________________________
Layer (type)                 Output Shape              Param #   
=================================================================
flatten_1 (Flatten)          (None, 784)               0         
_________________________________________________________________
dense_1 (Dense)              (None, 200)               157000    
_________________________________________________________________
activation_1 (Activation)    (None, 200)               0         
_________________________________________________________________
dense_2 (Dense)              (None, 200)               40200     
_________________________________________________________________
activation_2 (Activation)    (None, 200)               0         
_________________________________________________________________
dense_3 (Dense)              (None, 10)                2010      
=================================================================
Total params: 199,210
Trainable params: 199,210
Non-trainable params: 0
_________________________________________________________________
Training the two layer perceptron model ...
iteration 1
Getting batch of size 64 ...
Loss: 2.3746140003204346
Accuracy: 0.078125

iteration 2
Getting batch of size 64 ...
Loss: 2.2979812622070312
…
